model20.pth (torch, 33153 bytes, 2 tensors)

A f4 [20, 200]
00000000: 629c febf 674a 88bf 4c01 e73e 1a12 86be
00000010: 9e54 1b3f 836e d2bf c203 83bf 8d90 c2be
00000020: f812 06c0 a5e4 a0bf 93c1 88be 6ce1 bdbe
00000030: 1e53 8dbf 42a4 3fbf fbeb ffbe 749a ac3f
00000040: 0bda 263e 9498 2d3f 8d01 debf cdb2 46bf
00000050: 8a5d cc3f a7d3 fb3d b698 9bbe cdb3 bdbf
00000060: a8ac c23f 4698 1cbe 7102 03c0 9840 2ebf
00000070: 86ef aebe 6da7 2abf 158b 3440 5da3 0c3f
00000080: dc23 2d3e 0884 20c0 7c8c 1d40 50d2 0dc0
00000090: 030d b7bd 8742 cabe 0686 cb3e e667 ccbf
000000a0: f56b 0640 5851 c8bf 3a1d 38bf 64e0 08c0
000000b0: a8d4 eabf a092 843e ccdc 7e3f bc35 eb3f
000000c0: f288 bcbf 4c9c 693f 715a 293f b125 ec3e
000000d0: c1ee 713f 9b48 0c3f fedf b9be aad2 4f3f
000000e0: ea35 02bf 3798 28bf f8fd 11c0 50d1 14bd
000000f0: 7151 88bf a99e 3840 1f00 cf3e b338 e63e
00000100: e151 91be 93c9 9abf 93b4 9abf 3cf1 093e
00000110: 2776 dbbf 4928 003f 2216 28bf ac9b 95be
00000120: 1e6d 4140 cc0c 613f 2f2b 7dbe 9f5d 1abe
00000130: 2af0 12bd 5ca4 a03f 6677 7ebf 8c71 933f
00000140: 2688 a83f 16ab 79bf 9ca0 993f e88b 46bf
00000150: dc49 193f 0641 573c 2cc4 af3f 4d91 51bf
00000160: 6fb0 b7be e935 bcbd de96 ed3f 4798 1cc0
00000170: 38b2 953e b3dd b0be 30fe a3bf 30f2 273f
00000180: 5468 973b 0c3c 21bf 33ba eebe b641 663f
00000190: 7ff9 a1be 3008 383e a4bb d6bf 1ebc 8fbf
000001a0: beb0 6fbd e296 f53f 08b7 f43f 91fd 63be
000001b0: 4f40 8c3d 43b8 41c0 2563 b2bf fbb7 5bc0
000001c0: b3d8 6d3e 9874 133f 24ec 5bbe da7f 113f
000001d0: 33d2 09bf eb5c 3540 0156 d83f db16 7b3f
000001e0: 1e16 3b3f 8c03 973e d829 473f 7283 e6bd
000001f0: 29c8 4a3f 8023 873f e136 b73d 18a6 f9be
00000200: e570 893f 6e8d a53e ea8c e4bd 181e e4be
00000210: e198 0740 c189 083d f706 28bf 2bed 373f
00000220: 8ed4 e63f 6485 583e d556 1c40 7079 943f
00000230: c07c 83bf 1031 5fc0 e57a 1740 1e83 27be
00000240: dfe6 693f 3b87 c93f ab12 1b3f cac7 3e3e
00000250: aeec 863e 2dde 04bf 0d54 88bf 606d c13f
00000260: b904 99bf 6d47 5c3f 0660 0d3e edf1 773f
00000270: a7be 53bf bc93 683f b20b 1540 3a3f e23f
00000280: 12de aabd 0650 60bf 2c02 30c0 87c2 723f
00000290: e10d 2ec0 d39b 2fc0 7369 003f 50a9 b4bf
000002a0: 5037 a8bf 9eac 16bf 1e92 b03f c135 713e
000002b0: 0db6 a43e de7d 813f 67ef 6c40 dcfb 363f
000002c0: 51e8 803e 63ff 273d 8fe3 1b40 43dd 0ebf
000002d0: 0d6b 233f 9bdd 0f3f 3029 8fbd 35c7 e1bd
000002e0: 11ec d13e 34f8 803e a42c a83f 4975 a33f
000002f0: d0c8 463e 1128 fa3e 321c 253f 1ff6 afbf
00000300: 4267 39c0 8cf9 153e 80b5 5bbf 666c 343f
00000310: b16f f03d 2381 08c0 d4bc 703f 9a23 22c0
00000320: fe38 d7bf 9686 77be fb78 8bbe 3428 873e
00000330: 5ed5 55be 527b c7bf c2ca 973e 87d9 92bf
00000340: 6c3b 95bf 3d77 66bf a851 92bf 5e60 69bf
00000350: b559 aebf 3361 fbbd 0c5e 1ebf aff5 dc3f
00000360: 8f41 563e 9254 ae3f 6e42 e0bf cafb 04bf
00000370: 4945 e43f dd83 103e 5398 02be 4e7f 22c0
00000380: 27f3 4d3f c4ac 85be 6337 adbf 4762 24bd
00000390: 1ccf 253f 5c8c 1abf 5f19 3340 78fd efbd
000003a0: c239 bd3e 3231 b4bf 3d91 b33f 6406 0ebf
000003b0: 7775 0e3e 83d3 5bbd fdc7 af3e f61a 2abf
000003c0: af36 db3f 30d7 03bf a0f4 2dbf 60df 0abf
000003d0: f625 0ac0 28e6 debc d2f7 c43f fa15 ab3f
000003e0: f3ea 0dc0 a45d fc3e d241 10bf 4fd7 df3e
000003f0: 9223 543f 246a aa3f 8e36 57bf aeb5 0abf
-1.9891474 -1.0647706 0.45118177 -0.26185685 0.6067599 -1.6439976 -1.0235522 -0.38000908
-2.0949078 -1.2569777 -0.26710185 -0.37086046 -1.104099 -0.7486001 -0.49984726 1.3484635
0.16294114 0.6781094 -1.7344223 -0.7761658 1.5966046 0.12296229 -0.30389947 -1.4820496
1.520894 -0.15292463 -2.047024 -0.6806731 -0.34167117 -0.6666172 2.820989 0.5493677
0.1690821 -2.5080585 2.4616995 -2.2159615 -0.08938029 -0.3950388 0.3975069 -1.5969207
2.1003392 -1.5649824 -0.71919596 -2.1386957 -1.8346148 0.25893116 0.9955566 1.8375773
-1.4729292 0.91254115 0.6615363 0.46122506 0.94504935 0.5479829 -0.36303705 0.8118082
-0.50863516 -0.6585726 -2.281126 -0.03633243 -1.0649854 2.8846838 0.4042978 0.44965133
-0.2838278 -1.2092766 -1.2086357 0.1347093 -1.7145432 0.5006147 -0.6565877 -0.2922033
3.022285 0.8791015 -0.24723504 -0.15074776 -0.03587357 1.2550159 -0.9940094 1.1519027
1.3166549 -0.9752668 1.2002139 -0.7755723 0.59878325 0.013138061 1.3731742 -0.81862336
-0.35876796 -0.0918997 1.8561666 -2.4467943 0.29237533 -0.34544143 -1.2811947 0.65603924
0.004620591 -0.6298225 -0.46626434 0.89944017 -0.31635663 0.17971873 -1.6776013 -1.1229284
-0.058518164 1.9186671 1.9118357 -0.22264697 0.068482034 -3.0268714 -1.3936507 -3.4331043
0.23227195 0.5759978 -0.21476799 0.5683571 -0.53836364 2.8337963 1.6901246 0.9808175
0.73080623 0.29494894 0.77798223 -0.1125554 0.7921167 1.0557709 0.08946014 -0.48759532
1.0737578 0.32334465 -0.1115969 -0.4455421 2.118706 0.033334497 -0.6563563 0.71846265
1.8033617 0.21144634 2.4427998 1.159956 -1.0272446 -3.4873695 2.366876 -0.16358611
0.91367906 1.5744394 0.6057536 0.18630901 0.26352447 -0.51901513 -1.065065 1.5111504
-1.1954566 0.8604649 0.13806161 0.96853524 -0.8271279 0.90850425 2.3288388 1.7675545
-0.08343138 -0.87622106 -2.7501326 0.94828075 -2.719597 -2.7438858 0.501609 -1.411417
-1.314188 -0.5885714 1.3794591 0.23555662 0.32170144 1.0116537 3.702112 0.71478057
0.25177243 0.04101504 2.435764 -0.5580637 0.6383522 0.5619752 -0.06990278 -0.11024324
0.41000417 0.25189364 1.3138623 1.2770168 0.19412541 0.48858693 0.6449615 -1.3746985
-2.8969274 0.14645976 -0.8582382 0.704779 0.117400534 -2.1328819 0.9403813 -2.533423
-1.6814268 -0.24172434 -0.27240738 0.2639786 -0.20882174 -1.5584509 0.2964688 -1.1472634
-1.1658759 -0.90025693 -1.143117 -0.9116267 -1.3621126 -0.12274399 -0.61862254 1.7262477
0.20923446 1.3619559 -1.7520273 -0.519467 1.7833644 0.14112802 -0.1275342 -2.53902
0.80449146 -0.26108372 -1.3532528 -0.040132787 0.6476915 -0.6037042 2.7984235 -0.11718267
0.36958128 -1.4077513 1.4028698 -0.554785 0.13911997 -0.05366851 0.34332266 -0.6644739
1.7126063 -0.51500225 -0.67951393 -0.54247093 -2.158567 -0.027209356 1.5388129 1.3366082
-2.2174652 0.49290192 -0.56350434 0.43718955 0.82866776 1.3313642 -0.8406762 -0.5418347

B f4 [20, 200]
00000000: 30da 85bf c4ef f63e 7c40 27c0 50dd a23e
00000010: c0f4 c43f 5d85 d23d 020b 74be a45a d23f
00000020: b853 ac3f 3bdf 7fbd 2214 cebe 4aa8 5b3f
00000030: 4075 80bf 1d86 843e cca3 28bf e1cf 893e
00000040: 15b6 c6bf f691 95bf 9bc8 32be c4ae 883f
00000050: fa05 453f ea51 d5bf 2b2a cb3e 341b 26c0
00000060: ddce 6e3d 21fe d53f d761 3abf a654 ac3f
00000070: 1b3a 21be 43fd 393f b638 dc3f 8368 f5be
00000080: 1973 8abf 02dd a7bf 1b87 2e3f c3e0 0e3e
00000090: ad8c 42bf 8614 e43f 5616 d13e 9123 01bf
000000a0: 9935 e53e d748 613e 457f bc3f afce d43f
000000b0: 82a0 723d 6e77 9ebf 225d 463e ecbe b03f
000000c0: 0187 933f 6f59 94be 2d90 693f 1bbc 14c0
000000d0: 5097 203f 31a2 85bf 9655 36be 49be c5bd
000000e0: c6b0 703b 11c1 fabe de72 7d3f 370b 6fbe
000000f0: 88df 1ebf 1281 ad3d a751 e63f 5181 7a3f
00000100: a722 493d bf93 a23d 8fda dcbf 3994 2d3f
00000110: d8eb 19bc c214 e23e 93f6 1bbf ccfb 8e3f
00000120: 7db9 0c40 7a12 e13e 8273 8ebe 9bd3 0040
00000130: 0726 ccbe 01fc 90be 781a 633e 4422 9c3e
00000140: 842a 8cbe cf76 c4bd dd6f 30be 0125 2bbf
00000150: 6844 2c3e 237c af3f 43b5 b3bf b86f babe
00000160: 0d4d a63f c876 31bf f396 9a3f aba5 6ebe
00000170: 5446 b23e f086 d33e b659 0abe 15ba 153f
00000180: 958e df3e ad6b 53bf 7358 16c0 eed5 8ebf
00000190: d958 193e f10e 1ebf 18a9 bebe cb92 f2be
000001a0: 987e a2be 6942 58bf affd c03e 9000 3abf
000001b0: 9855 83bf f3c4 923f 0b3e 81be 8359 82be
000001c0: de30 323e 940a 4e3f 37c6 89be cf33 adbf
000001d0: ca01 71bf fe48 b0be 448b 88bd 30c2 1940
000001e0: cf2b 753f 4a70 8d3f 6c59 85be 3c1e 64bf
000001f0: bd4e b4be ff41 543f e478 62bf 8a6d 90bf
00000200: 8060 aa3f 0e08 9abe 7c91 86bf ba2a 243d
00000210: a817 cb3e 5199 073e facb 1abe 4eba 15be
00000220: f6ac 4a3f 04a2 b0be 94f6 4a3f 488e 813e
00000230: fe6e 8bbe 5277 1d40 0bab 02c0 ad5b 333f
00000240: 8898 363f 9011 df3f cb30 82bf f425 b5bf
00000250: 5cab 873f b0c2 683f 264d 443d 825d 1840
00000260: 6471 b53e 1ec8 bcbe dfdb f93e c4ff 503e
00000270: 76bf 963a 58f3 f9bd 21d4 dc3f 4b37 1bbd
00000280: 208d 03c0 1d47 8c3f d51b 093e 8e05 97bf
00000290: 22ee a9bf 6949 7d3d a792 1b3f e9cd 13c0
000002a0: fe2d 5c3f 1594 dfbf 8b71 913f 6561 1440
000002b0: dd51 9dbf 2f39 573f 00b8 463e 0f12 41bf
000002c0: 73cb 8abf 06da 1c3f 7cc5 02be f10e 0c3f
000002d0: 2ad8 94be a295 efbd 3716 aabe 4c57 2e3f
000002e0: fcd5 b9bd 8ed6 d1bc 13d1 2cbf f83d 41bd
000002f0: f5f1 b63f 0e90 953f 3e8d ed3f 9821 2cbf
00000300: f157 c33f 27dd bc3f a4ae 333f 6cac f83f
00000310: bb28 943f d8df 63be 3f9c f2bd 139e e3bd
00000320: dff9 83bf a884 413f 5b24 12c0 f152 363e
00000330: 55ee f43f cbd5 f93e dc17 493e 0f68 d63f
00000340: 7142 883f af3e 8a3e dada 52bf 947b 3c3e
00000350: bccd afbe ae6c 8cbe bd53 55bf b2d0 d13f
00000360: 47f0 8dbf bf12 34bf b52a 6d3e 252d 893f
00000370: 8ea1 663f d20f 9ebf ad6e 0e3f 0f0c 17c0
00000380: 7719 c4be 6800 e03f 6615 0dbf ef26 e13f
00000390: a488 433e df02 5e3e ae58 9f3f 93bd 95be
000003a0: 50d5 9cbf ec6d 83bf 6eb4 473f 3771 343e
000003b0: 80df 87bf 881e 853f 8951 e4bc d055 cbbe
000003c0: 0f95 1f3f f0ce 523f 45ea 0c40 1476 d73f
000003d0: 8d3c c53e d153 cfbf 8220 25bc c366 013f
000003e0: af0f 283f cc99 6dbe 86ff d63f 05dc 95bf
000003f0: d01d 303f 9966 1dbf 3f0a 29bf 3e9a 0fbf
-1.045721 0.48229802 -2.6133108 0.31809473 1.5387192 0.10279343 -0.23832324 1.6433911
1.3463049 -0.06246875 -0.40249735 0.85803664 -1.0035782 0.2588357 -0.65874934 0.26916412
-1.5524317 -1.1685169 -0.17459337 1.0678334 0.76962245 -1.6665623 0.3968061 -2.5954103
0.05830275 1.6718179 -0.7280554 1.3463333 -0.15744822 0.7265207 1.7204807 -0.479313
-1.0816375 -1.3114321 0.68174905 0.13952927 -0.75995904 1.7818763 0.40837353 -0.50444895
0.44767454 0.22000442 1.472634 1.6625575 0.059235103 -1.2380197 0.19371465 1.3808265
1.1525575 -0.28974482 0.9123562 -2.323981 0.62730885 -1.0440122 -0.17806086 -0.09655435
0.003672646 -0.48975423 0.990034 -0.23344122 -0.6205983 0.08471884 1.7993668 0.9785357
0.049105313 0.079383366 -1.7254199 0.67804295 -0.009394608 0.44156462 -0.6092312 1.1170592
2.1988213 0.4395941 -0.278225 2.0129154 -0.39872763 -0.28317264 0.22178066 0.30494893
-0.27376187 -0.095929734 -0.17230172 -0.6685334 0.1682297 1.3709759 -1.4039692 -0.3641336
1.2992264 -0.6932187 1.2077316 -0.23305385 0.3481928 0.41313887 -0.13510785 0.58487064
0.4366347 -0.82586175 -2.3491485 -1.1159036 0.14975299 -0.6174155 -0.37238383 -0.4737762
-0.31737208 -0.84476334 0.37693545 -0.7265711 -1.0260496 1.1466354 -0.25242648 -0.25458917
0.17401454 0.8048489 -0.26909038 -1.3531436 -0.94143355 -0.3443069 -0.06667188 2.4024773
0.9576997 1.1049893 -0.26044786 -0.89108634 -0.35216323 0.829132 -0.88465714 -1.1283429
1.33107 -0.3008427 -1.0513148 0.04007981 0.39666486 0.1324208 -0.15116873 -0.14621851
0.7917017 -0.34498608 0.792825 0.25303864 -0.27233118 2.4604077 -2.0416896 0.7006176
0.71326494 1.7427235 -1.017114 -1.4152207 1.059917 0.9092207 0.047925137 2.3807073
0.35438073 -0.36871427 0.4880056 0.20410067 0.0011501152 -0.12204617 1.7252237 -0.03789453
-2.0554886 1.0959202 0.13389523 -1.179857 -1.3275797 0.061837588 0.6077065 -2.3094428
0.8600768 -1.7467066 1.1362776 2.3184445 -1.2290608 0.8407163 0.19406128 -0.7541818
-1.0843338 0.6127018 -0.12770647 0.547103 -0.2907117 -0.11698462 -0.33220074 0.68101954
-0.090740174 -0.025615003 -0.6750652 -0.04717824 1.429259 1.1684587 1.8558729 -0.6723876
1.5261213 1.475499 0.70188355 1.9427619 1.157493 -0.22253358 -0.11846208 -0.11114135
-1.031063 0.7559304 -2.283469 0.17805077 1.9135233 0.48795924 0.19638008 1.6750506
1.0645276 0.2700095 -0.8236519 0.18406516 -0.3433665 -0.27426666 -0.833309 1.6391814
-1.1088952 -0.70341104 0.23160823 1.0716902 0.9009026 -1.2348578 0.5563763 -2.360111
-0.38300678 1.7500124 -0.55110776 1.7590007 0.19095093 0.21680783 1.2448938 -0.29246196
-1.2252598 -1.026792 0.7800969 0.17621313 -1.0615082 1.0399942 -0.02787091 -0.39713907
0.6233682 0.8234701 2.2017987 1.683291 0.3852276 -1.6197454 -0.010078551 0.50547427
0.6564893 -0.232032 1.679673 -1.170777 0.6879549 -0.61484677 -0.6603126 -0.5609473
