model40.pth (torch, 65153 bytes, 2 tensors)

A f4 [40, 200]
0	0xbfe2cb15	-1.7718226
1	0xc02786a5	-2.617593
2	0xbf30670e	-0.6890725
3	0xbf3dad87	-0.74092907
4	0xbf9d14c8	-1.2271967
5	0xbf998989	-1.1995097
6	0xbf8d7630	-1.1051693
7	0xbeec9e59	-0.4621456
8	0xbf907dc6	-1.1288383
9	0xbfc7f933	-1.5622925
10	0xbf5fc7a7	-0.8741402
11	0xbdbfccf7	-0.09365266
12	0xc0264ce1	-2.5984423
13	0xbf7befdf	-0.9841289
14	0xc02cd612	-2.7005658
15	0x405299e6	3.2906432
16	0xbf9d531b	-1.2290987
17	0x40096a63	2.1471183
18	0xc01bb32f	-2.4328115
19	0xc005ae90	-2.0887794
20	0x400ec655	2.2308552
21	0x3e97bdd9	0.2963703
22	0xbfc03be0	-1.5018272
23	0xc03cfef8	-2.953062
24	0x4030ad04	2.76056
25	0xbf5b9959	-0.85780865
26	0xc0026f1d	-2.0380318
27	0x3f4f5f15	0.8100446
28	0xbf821edb	-1.0165666
29	0x3f8206f1	1.0158368
30	0x406beb77	3.6862466
31	0xbec3129c	-0.38100135
32	0xbddefbd5	-0.10887877
33	0xbfe65d4b	-1.7997221
34	0x401f0779	2.484831
35	0xc03ac542	-2.9182897
36	0x3d8e0c85	0.06935982
37	0xbd34302d	-0.043991257
38	0xbf4494c8	-0.7678952
39	0xc02dac10	-2.7136269
40	0x3f40b3e0	0.7527447
41	0xbf9ebf32	-1.2402098
42	0xbfa06b64	-1.2532773
43	0xbf160391	-0.5859919
44	0xbf69895c	-0.9122522
45	0x3f91a1b1	1.1377469
46	0x3fd2599f	1.64336
47	0x4032f03c	2.7959127
48	0xc06bcdb8	-3.684431
49	0x3fd35b3b	1.6512216
50	0x3f858320	1.0430641
51	0xbf226938	-0.634418
52	0xbeb34adc	-0.3501805
53	0x3fc50543	1.5392231
54	0xbedeacea	-0.43491298
55	0xbd378cd9	-0.044812057
56	0xbf29ec60	-0.66376305
57	0xbfa37a16	-1.2771633
58	0xbf88913f	-1.0669326
59	0x3f01c596	0.5069212
60	0xbf9066a9	-1.1281329
61	0x400ce99d	2.2017586
62	0x3ffeb857	1.9900006
63	0x3f867a91	1.0506154
64	0x3d314ecd	0.04328804
65	0xbfddcbcd	-1.732782
66	0xbe25573d	-0.1614656
67	0x3e9eeaa0	0.3103838
68	0xc022a446	-2.5412765
69	0x3fc3b6b0	1.5290127
70	0xbf814587	-1.0099343
71	0x3ee2fbd9	0.4433277
72	0x408827c4	4.254854
73	0x3f853cda	1.0409195
74	0xbea5f62c	-0.32414377
75	0xbf32fc27	-0.69916004
76	0xbf0c41c8	-0.54787874
77	0x3fa70524	1.3048444
78	0xbff9819b	-1.9492677
79	0xbf331f75	-0.69969875
80	0x3fb0e5aa	1.3820088
81	0xbfd6966f	-1.6764659
82	0x3eda929d	0.42689982
83	0xbf34d6b0	-0.7064009
84	0x3f7f57d1	0.9974337
85	0xbe71ae8b	-0.23601739
86	0x3ed3d7a2	0.41375452
87	0xbfa39f55	-1.2782999
88	0x3f8e39c5	1.111138
89	0xbdf1fac5	-0.118154086
90	0x4018cb6a	2.3874154
91	0xc0742a6a	-3.8150887
92	0x3e6a4b2c	0.22880238
93	0xc011c781	-2.2778018
94	0xc00f70ba	-2.2412553
95	0x3ffbcd63	1.9672054
96	0x4066f4a5	3.608682
97	0xbf847664	-1.034863
98	0x3ef44c11	0.47714284
99	0x40417c64	3.0232172
100	0x3e4adc36	0.19810566
101	0xbf8ef790	-1.11693
102	0xc0358d99	-2.8367674
103	0xbfc42772	-1.5324538
104	0x3ed6c6bb	0.41948494
105	0x3fe3e5b0	1.780447
106	0x4047863e	3.1175685
107	0x3f406932	0.75160515
108	0x3f3e748f	0.74396604
109	0xc0243be2	-2.566155
110	0xbfbf18c3	-1.4929432
111	0xc095b966	-4.6788816
112	0xc0408078	-3.007841
113	0x3fd5451f	1.6661719
114	0x3d9354c4	0.07193902
115	0x3ee9befa	0.45653516
116	0x3ef98068	0.4873078
117	0x4015a71a	2.338324
118	0x4030592f	2.7554433
119	0x3e1cddad	0.15318938
120	0x3face32b	1.3506826
121	0x3dad76a6	0.08469896
122	0x3e9c24fd	0.3049697
123	0xbedc3360	-0.43007946
124	0x3fdaf66a	1.710645
125	0x3f9d258c	1.2277083
126	0xbf9cc2c3	-1.2246937
127	0xbfbf0774	-1.492415
128	0xbe88126a	-0.2657655
129	0xbf838d29	-1.0277454
130	0xbf89e2f1	-1.0772382
131	0xbf1ac3e0	-0.6045513
132	0x405a1362	3.407433
133	0xbe3c69a9	-0.18399681
134	0xbf82d76f	-1.0221995
135	0x3dc4cb89	0.09609134
136	0x3fddcb53	1.7327675
137	0x3f99316d	1.1968209
138	0x3fe3293d	1.774696
139	0x3f096f82	0.5368577
140	0xbf071364	-0.5276396
141	0xc093e11f	-4.6212306
142	0x3ff01a7e	1.8758085
143	0xbf1c7716	-0.6111921
144	0x3f365dca	0.7123686
145	0x3f9f62e2	1.2452052
146	0x3e841980	0.25800705
147	0x3ee59c1b	0.44845662
148	0xbf6e0eea	-0.9299151
149	0xc01f4bbc	-2.4889975
150	0x3d520306	0.051272415
151	0x402afa1d	2.6715157
152	0xbfde8c3a	-1.7386544
153	0x3fdafc32	1.7108214
154	0x3dcc2717	0.09968393
155	0x401005d2	2.2503552
156	0x3f8c0671	1.0939466
157	0x4000b072	2.0107694
158	0x407fa764	3.9945917
159	0x4044d309	3.0753806
160	0x3fd7b601	1.6852418
161	0xbf808e2d	-1.0043389
162	0xc033d516	-2.8098807
163	0x400f7896	2.241735
164	0xbfbb639d	-1.4639775
165	0xc058d0e4	-3.3877497
166	0x3f3557f2	0.7083732
167	0xc01de9ed	-2.4674027
168	0x3f000e2a	0.5002161
169	0xbfa676f3	-1.300505
170	0x4005ddea	2.0916696
171	0x3ec1ced6	0.37853116
172	0xbf591952	-0.8480426
173	0x3fdff8b6	1.7497776
174	0x4058e347	3.388872
175	0x3f60eacf	0.8785829
176	0xbe2e5385	-0.17024048
177	0xbf4a69a2	-0.7906743
178	0x409bb801	4.8662114
179	0xbe2c7757	-0.168424
180	0xbe5ac20a	-0.21363083
181	0x3fd11563	1.6334652
182	0x3fc896d9	1.5671035
183	0xbf489a22	-0.7836019
184	0x3ed92460	0.42410564
185	0x3f846762	1.034405
186	0x4032edda	2.7957673
187	0x3fced29c	1.6158023
188	0xbc8f17ea	-0.017467458
189	0x3f86cd3d	1.0531384
190	0x3eea6b88	0.45785165
191	0x3e54831e	0.20753142
192	0xc025e538	-2.5921154
193	0xc0156b6d	-2.3346817
194	0xbf5df988	-0.8670888
195	0x3f973a02	1.1814578
196	0xbef8291c	-0.48468864
197	0xbf84d794	-1.0378289
198	0x3ed9b032	0.4251724
199	0xc0631393	-3.5480697
200	0xc04fd7e1	-3.2475512
201	0xbe9f7483	-0.3114358
202	0xbfbb14dd	-1.4615742
203	0x3f527883	0.82215136
204	0xbf68a608	-0.90878344
205	0x3e5495cb	0.20760266
206	0xbe4d62b0	-0.20057178
207	0xbf729204	-0.9475405
208	0xbfb5c915	-1.420199
209	0x3e5704b7	0.20997892
210	0xbf4c290e	-0.79750144
211	0xbe5989dd	-0.21243997
212	0xbfbe553e	-1.4869764
213	0xbe3982ce	-0.18116304
214	0xbe86a8e1	-0.2630072
215	0x3fc9d794	1.5768914
216	0xbf196f14	-0.59935117
217	0x3f15df9a	0.58544314
218	0xc065f6fd	-3.5932
219	0x3f6f0f73	0.9338295
220	0x3f3c7282	0.73612225
221	0x3ee09718	0.43865275
222	0x3f50b8d6	0.8153204
223	0xbff57173	-1.9175247
224	0x3f2a6576	0.6656107
225	0xbfc06af0	-1.5032635
226	0xbfef0396	-1.8672969
227	0xbdb05da3	-0.0861161
228	0x3f83a168	1.0283632
229	0x3e90df87	0.28295538
230	0x4038dce4	2.888482
231	0x3f99f1be	1.2026899
232	0x3f0cd87c	0.5501783
233	0xbf90747e	-1.128555
234	0x3fc8e33e	1.5694349
235	0xbfc4abeb	-1.5364965
236	0xbf1b3a46	-0.60635793
237	0x3e43ec95	0.19133218
238	0x3db0185d	0.08598397
239	0x3e8feb9f	0.28109452
240	0x3faf1420	1.3678017
241	0x3e3235c1	0.17403318
242	0xbf8a5c89	-1.080949
243	0x3e362035	0.17785724
244	0xbf736f5b	-0.9509179
245	0xbf77174c	-0.96519923
246	0x3f36e6dd	0.7144602
247	0x3fecb556	1.8492839
248	0xc00df781	-2.2182314
249	0xbf0ad208	-0.5422673
250	0xbf7ee089	-0.99561363
251	0x3ed13054	0.40857184
252	0x3fbd6fba	1.4799721
253	0x3f865b11	1.0496541
254	0xbf0803b3	-0.53130645
255	0xbe9bd54f	-0.3043618

B f4 [40, 200]
0	0xbf78d3a4	-0.9719794
1	0x3f75862b	0.9590785
2	0xc00b2e40	-2.1746979
3	0x3d47fb66	0.048823737
4	0x3fc3325d	1.5249745
5	0xbf7f051e	-0.99617183
6	0x3f06a86b	0.52600735
7	0x3ff5c51b	1.9200777
8	0x3ff85600	1.9401245
9	0xbdbc6bbc	-0.09200236
10	0xbef67f68	-0.48144078
11	0x3fcc9c58	1.5985212
12	0xbf985119	-1.1899749
13	0x3f88394a	1.0642483
14	0xbf45a156	-0.77199304
15	0xbdb6b2f5	-0.08920852
16	0xc02c61e0	-2.6934738
17	0xbff1c530	-1.8888302
18	0xbe8b1e8f	-0.27171752
19	0x3fb08269	1.3789798
20	0x3ec2224c	0.3791679
21	0xc012f676	-2.2962928
22	0x3f735d83	0.9506456
23	0xc054f7fe	-3.3276362
24	0xbf24e550	-0.64412403
25	0x3fcb3bc2	1.5877612
26	0xbf8661e1	-1.049862
27	0x3f9aa77b	1.2082361
28	0xbe9d2d75	-0.30698743
29	0x3feca5bf	1.8488082
30	0x4022bb8e	2.5426974
31	0xbf8caa4a	-1.0989468
32	0xbfc7ccaa	-1.5609334
33	0xbfd3a3fb	-1.6534418
34	0x3fb4a668	1.4113283
35	0xbdfdb512	-0.12388052
36	0xbe99903a	-0.2999285
37	0x401fece3	2.4988334
38	0xbf8b5e69	-1.0888187
39	0x3e688ced	0.22710009
40	0xbec48c57	-0.3838832
41	0x3f4af2aa	0.79276526
42	0x3fa9132e	1.3208978
43	0x3fb50515	1.4142176
44	0x3ea3c6e3	0.31987676
45	0xbfff3093	-1.9936699
46	0xbea90a3b	-0.33015618
47	0x40232210	2.548954
48	0x3fa57da3	1.2928966
49	0xbf2d1008	-0.67602587
50	0x3fa3849c	1.2774844
51	0xc040ccf0	-3.0125084
52	0x3f1f4f9d	0.62230855
53	0xbff2bdfb	-1.8964227
54	0xbea49a6e	-0.3214907
55	0x3ebe7535	0.37198797
56	0xbe0a7e65	-0.13524778
57	0xbea24fb7	-0.31701443
58	0x3f8b4bdc	1.0882525
59	0xbf2382c4	-0.6387141
60	0x3f1283f4	0.57232594
61	0x3fb44c5b	1.4085802
62	0x40157420	2.3352127
63	0x3f28ef6d	0.65990335
64	0x3f3db75d	0.74107915
65	0x3bfb3ce0	0.007667169
66	0xc040ce1f	-3.0125806
67	0x3efabca1	0.48972037
68	0x3e9a3cb3	0.30124435
69	0x3eaba7e6	0.33526534
70	0xbf896157	-1.0732831
71	0x3fc8fec6	1.5702751
72	0x40412ee0	3.018486
73	0x3ef804e0	0.4844122
74	0x3da46640	0.08027315
75	0x3fbd0ca8	1.4769487
76	0xc009165c	-2.1419897
77	0xbe0581ca	-0.13037792
78	0xbe7853e7	-0.24250756
79	0xbf78b243	-0.97147006
80	0xbff92c33	-1.9466614
81	0xbf9a1c9e	-1.2039983
82	0xbf2f3e7b	-0.6845471
83	0x3e0babd2	0.13639763
84	0xbd393f99	-0.045226667
85	0x3fc906f9	1.5705253
86	0xc0011c68	-2.0173588
87	0xbf079156	-0.5295614
88	0x3fec9d45	1.8485495
89	0xbf0f91ba	-0.56081736
90	0x3fe97ef3	1.8241867
91	0x3eb0b7e4	0.34515297
92	0xbe770c21	-0.2412572
93	0x3f898f87	1.0746926
94	0x3eaf1b47	0.34200498
95	0x3f85b3b0	1.0445461
96	0xbea8266c	-0.32841814
97	0xbffcf0e2	-1.9761012
98	0xbffbdf2e	-1.9677484
99	0xbe8b56fa	-0.27214795
100	0x3e564bb7	0.2092732
101	0xbed89eb9	-0.42308596
102	0xbf98b0db	-1.1928972
103	0xbf24790a	-0.6424719
104	0xbed51ad3	-0.41622028
105	0xbf3bc6ca	-0.73350203
106	0xbf2aa170	-0.66652584
107	0xbf9d065c	-1.2267566
108	0xbf95dada	-1.1707413
109	0x3f6ea2d2	0.93217194
110	0xbe3424e8	-0.17592204
111	0xbf1c5969	-0.6107393
112	0xbea64bd2	-0.3247972
113	0x3ffcc0ea	1.9746373
114	0x3e64b84a	0.22335926
115	0xbfed5e52	-1.8544409
116	0xbfc536c0	-1.5407333
117	0xbf1e1425	-0.6174949
118	0x3e63370e	0.2218897
119	0x40545e3f	3.3182523
120	0x3f67796b	0.90419644
121	0x3f7100c7	0.9414181
122	0xbf839849	-1.0280849
123	0x3d00d815	0.031456072
124	0xbf4fd67b	-0.81186646
125	0xbeb6c498	-0.35696864
126	0xbf665a3d	-0.8998144
127	0xbfe43509	-1.7828685
128	0x401bd404	2.4348154
129	0xbf98e5f3	-1.1945175
130	0xbff2f181	-1.8979951
131	0x3e60fdb7	0.21971785
132	0x3ed9c570	0.42533445
133	0x3f3f75ca	0.74789107
134	0x3ea72062	0.32641894
135	0xbd89bb9a	-0.06725235
136	0x3f0b87f6	0.54504335
137	0x3df34149	0.118776865
138	0x3f8e1609	1.1100475
139	0x3e999784	0.2999841
140	0x3ebe2034	0.37133944
141	0x40172215	2.3614552
142	0xc01897f2	-2.384274
143	0xbe34e092	-0.17663792
144	0x3f9d77dc	1.2302203
145	0x4024cb2d	2.5749009
146	0xc001c40b	-2.0275905
147	0xc018dcbb	-2.3884723
148	0x3f853a58	1.040843
149	0x3ee14efe	0.4400558
150	0x3fad16cf	1.3522586
151	0x40852ce0	4.161728
152	0xbe17c6c4	-0.14821917
153	0xbf63eada	-0.8903023
154	0x3f776ff9	0.9665523
155	0xbea7023c	-0.32618892
156	0x3efb6c38	0.49106002
157	0xbe3d2f1b	-0.18475
158	0x40230401	2.5471194
159	0x3ca79e4d	0.020461226
160	0xc033fa62	-2.8121572
161	0x3e5bb39b	0.21455233
162	0x3ec74f4e	0.38927692
163	0xbf17da2e	-0.5931729
164	0xbf9c7c9c	-1.2225528
165	0x3f388d69	0.72090775
166	0x3dcfb177	0.101412706
167	0xc0506b47	-3.2565477
168	0x3d98e0c7	0.07464748
169	0xbfbd4f47	-1.4789819
170	0x3fb189c1	1.3870164
171	0x4044b445	3.0735028
172	0xbfd7c075	-1.6855608
173	0x3fa8f889	1.3200847
174	0xbea006ae	-0.31255096
175	0xbfd3cb5b	-1.6546434
176	0xbfe52dcd	-1.7904602
177	0x3fa33d64	1.275311
178	0xbebc14e5	-0.3673469
179	0x3db34b36	0.0875458
180	0xbf7a000d	-0.9765633
181	0xbf87f3ea	-1.0621312
182	0xbde28894	-0.110612065
183	0x3fa35971	1.276167
184	0xbee8b77d	-0.4545249
185	0x3ec471e2	0.38368136
186	0xbfc6c5f0	-1.5529156
187	0xbe9cbe6a	-0.30614024
188	0x402bde99	2.6854613
189	0x3fdb3a57	1.7127179
190	0x400968fa	2.1470323
191	0xbf5af197	-0.85524887
192	0x3f9ab79c	1.2087283
193	0x4015b148	2.3389454
194	0x3f225a84	0.63419366
195	0x3fc61a0b	1.5476698
196	0x3e992709	0.29912594
197	0xbb06c044	-0.0020561377
198	0xbfb05227	-1.3775071
199	0x3ee1807b	0.44043335
200	0x3fb35b1d	1.401218
201	0x3d9bd639	0.07609219
202	0xc00ad05d	-2.1689675
203	0x3e514ee1	0.20440246
204	0x3f149cdf	0.58051866
205	0x3fd14176	1.6348102
206	0x3f9d797c	1.2302699
207	0x40050ac5	2.0787823
208	0x3f404c86	0.75116765
209	0x3fb3a173	1.4033645
210	0xbf8d27be	-1.1027753
211	0x3f434fb0	0.7629347
212	0x3e434cdf	0.19072293
213	0xbea584cc	-0.32327878
214	0xbf6b6337	-0.91948265
215	0x3f80cd8b	1.0062727
216	0xbf523651	-0.8211413
217	0xbd32aeb4	-0.04362364
218	0xbf117238	-0.5681491
219	0xbee1ef25	-0.44127765
220	0x3fb51b28	1.4148912
221	0xbf70f818	-0.9412856
222	0x3fbefdbd	1.4921185
223	0xc028bba6	-2.6364532
224	0xbf991bf0	-1.1961651
225	0x400df1da	2.2178864
226	0xbee0270f	-0.437798
227	0x3fc2fd96	1.5233638
228	0x3e95e947	0.2927954
229	0xbf4aa501	-0.79158026
230	0x40040e37	2.0633676
231	0x3f1454a8	0.57941675
232	0xbea125d0	-0.3147416
233	0xbfcf0744	-1.6174092
234	0x3f4292fd	0.76005536
235	0x3e00ce7f	0.12578772
236	0xbfe5f364	-1.7964902
237	0xbd4e629f	-0.05038702
238	0x3fd00af5	1.6253344
239	0xbf40fb08	-0.75383043
240	0x3e4f22ed	0.20228167
241	0xbdd4ab17	-0.10384195
242	0x3e50f592	0.20406178
243	0x3fb55c98	1.4168882
244	0xbeace189	-0.3376582
245	0xbf8fc576	-1.1232135
246	0xbf652afd	-0.8951872
247	0x3e4399fe	0.19101712
248	0x3f99a99f	1.2004889
249	0x3f64dbb0	0.89397717
250	0x3fa42d6a	1.2826359
251	0xbe73d44d	-0.23811455
252	0x3f820922	1.0159037
253	0xbf536c98	-0.82587576
254	0xbe134774	-0.14382726
255	0xbfbf8394	-1.496203
