nonorm40.pth (torch, 65153 bytes, 2 tensors)

A f4 [40, 200]
0.5595464 0.4875931 -0.40961233 0.5057128 0.9823272 -0.8791336 0.65432966 -0.40882972
-0.28702423 -0.0125855 -0.48214388 0.6891187 -0.39166796 0.31597215 0.48572138 -0.443172
-0.4121408 0.54568005 -0.15396024 0.7509344 -0.44529867 0.44957408 0.8622851 0.06277467
0.13810872 0.45317736 -0.11578682 -0.54710966 1.0365958 0.64212567 1.7256386 0.11240953
1.1107026 -0.26753977 -0.24512099 0.63330156 -0.21200718 0.53085893 0.71696615 0.1871427
0.4459328 0.4077985 -0.783209 -0.34770018 0.19575343 0.27021366 0.49925667 0.57004523
0.013728723 0.079542704 0.96088344 -0.9148735 -0.21344332 0.2893473 0.41232115 0.3314318
-0.31712705 0.16671915 0.71739423 -0.16222242 -0.65403223 0.90206814 0.3104442 1.639506
1.1167467 -1.2390121 -0.3370307 -0.8385854 0.49334309 0.28670385 0.35481903 -0.28659508
-0.29163307 0.89644325 -0.45475772 -0.33484945 -0.2776 0.47512016 0.0052245366 1.506739
0.6020543 0.26817998 0.6954604 -0.13445972 0.71445185 -0.4446424 1.1317106 0.38046655
0.51445407 0.3526819 -0.04204999 0.36034048 1.082532 -0.06746027 0.273702 0.40115255
-0.33377567 0.7843584 1.123788 -0.37445986 0.98477626 0.64218307 0.81280005 -0.4219409
-0.24839373 1.2841414 0.2754704 -0.11239634 0.2748388 -0.29653853 -0.42964584 0.03240856
-0.69552106 0.20978887 -0.6847481 0.01329211 0.6705133 0.18515518 0.8540716 0.39306164
-0.19739978 0.40434816 1.0408937 -0.18982205 -0.5613792 0.04175563 -0.20830752 -0.9345951
-0.25762713 1.402396 0.54719275 -0.37565613 0.20724636 0.15688321 1.1946708 0.0063736252
0.100169145 0.5586496 0.3760455 0.09981486 -0.41837382 0.67969495 0.973968 1.2612734
0.20327547 0.6003731 0.4582294 1.0111583 0.58765054 0.5448478 0.91324097 -0.05508713
1.6364585 0.3162863 0.4697869 1.6468992 -1.3311348 0.2959371 -0.28731585 0.8202299
0.45253894 -0.14314857 0.60664606 0.70616555 0.3806656 0.5976654 0.005803283 0.93909234
-0.15710847 0.34215605 -0.66170555 0.19653709 0.2009972 -0.61646307 1.0147235 0.076895885
0.5974811 -0.06893264 -0.9397387 0.04400921 0.32028267 0.44062087 0.4877632 -0.5767084
-0.014178985 -0.13009296 1.1082531 0.106442004 -0.4278935 0.02714908 1.1570827 0.29504052
-0.21538658 0.29923356 0.5487812 0.70945954 0.7401659 0.27548882 0.65499675 -0.1288691
0.29556644 -0.3540765 0.7506223 0.0010346293 -0.18268324 -0.53546095 -0.09125862 0.17366597
0.8646907 0.03399691 0.18141717 -0.5586561 -0.2586662 0.18062654 -0.38392252 0.01898944
1.4739759 -0.044670336 0.05574387 -0.06500386 0.24925597 0.46976212 0.120506525 0.32107973
0.7296725 0.13080557 0.4152614 -0.2604611 0.5508789 0.30495262 0.37106332 0.023109498
0.52366984 -0.52419454 0.8114729 0.4193857 0.6611395 -0.046432387 0.6873312 0.27632484
0.3357393 0.52163476 0.12497725 0.11696389 0.027109832 0.038974304 0.7673594 0.12604009
1.4664476 1.6509696 -0.4870107 -0.6985226 0.10850168 0.6708603 -0.17983349 -1.3606128
00000000: 6f3e 0f3f cea5 f93e b5b8 d1be 6576 013f
00000010: cc79 7b3f e60e 61bf 2682 273f 2152 d1be
00000020: d7f4 92be 6a33 4ebc 90db f6be 156a 303f
00000030: b488 c8be 1ac7 a13e 79b0 f83e 71e7 e2be
00000040: 1e04 d3be b0b1 0b3f c1a7 1dbe 3d3d 403f
00000050: 30fe e3be 932e e63e b7be 5c3f 0290 803d
00000060: 5f6c 0d3e dd06 e83e a421 edbd 610f 0cbf
00000070: 2caf 843f 5962 243f bae1 dc3f f836 e63d
00000080: 812b 8e3f f9fa 88be ff00 7bbe 0d20 223f
00000090: 6918 59be 5fe6 073f 188b 373f 56a2 3f3e
000000a0: 4e51 e43e f7ca d03e 6380 48bf c205 b2be
000000b0: 9673 483e 7259 8a3e 929e ff3e 7cee 113f
000000c0: 70ee 603c 49e7 a23d 75fc 753f 2635 6abf
000000d0: e390 5abe 5425 943e c21b d33e 6eb1 a93e
000000e0: 7a5e a2be 6db8 2a3e 26a7 373f a21d 26be
000000f0: a86e 27bf f0ed 663f 8bf2 9e3e 55db d13f
00000100: 8ef1 8e3f f397 9ebf 4a8f acbe 88ad 56bf
00000110: 7797 fc3e d9ca 923e d7aa b53e 97bc 92be
00000120: ee50 95be 4e7d 653f 01d6 e8be 6371 abbe
00000130: 9621 8ebe f342 f33e 9732 ab3b d3dc c03f
00000140: 3b20 1a3f e34e 893e b109 323f cfaf 09be
00000150: 51e6 363f 2ba8 e3be e5db 903f 83cc c23e
00000160: 43b3 033f b992 b43e 9c3c 2cbd 8c7e b83e
00000170: 6990 8a3f 9c28 8abd ab22 8c3e de63 cd3e
00000180: a5e4 aabe b6cb 483f 49d8 8f3f 34b9 bfbe
00000190: 4c1a 7c3f 1c66 243f aa13 503f a308 d8be
000001a0: ed5a 7ebe bf5e a43f 750a 8d3e 0d30 e6bd
000001b0: acb7 8c3e e6d3 97be 8afa dbbe d7be 043d
000001c0: ab0d 32bf e5d2 563e a74b 2fbf 26c7 593c
000001d0: c2a6 2b3f 5299 3d3e 70a4 5a3f 603f c93e
000001e0: 2b23 4abe b906 cf3e 013c 853f b660 42be
000001f0: 8cb6 0fbf f407 2b3d 914e 55be a041 6fbf
00000200: b4e7 83be b681 b33f d314 0c3f 0056 c0be
00000210: 6438 543e fea5 203e f9ea 983f d8d9 d03b
00000220: 7b25 cd3d a903 0f3f 0989 c03e bc6b cc3d
00000230: 1835 d6be 7d00 2e3f f855 793f 6871 a13f
00000240: 7227 503e 0db2 193f 0b9d ea3e a36d 813f
00000250: 4470 163f 257b 0b3f 29ca 693f 0ba3 61bd
00000260: 7977 d13f 47f0 a13e e987 f03e 98cd d23f
00000270: a062 aabf 1185 973e 101b 93be 96fa 513f
00000280: 2fb3 e73e 8a95 12be 284d 1b3f 44c7 343f
00000290: 9ae6 c23e 9a00 193f 7729 be3b 5b68 703f
000002a0: 0be1 20be 142f af3e 8965 29bf 0541 493e
000002b0: 36d2 4d3e 86d0 1dbf 76e2 813f 977b 9d3d
000002c0: 85f4 183f 8e2c 8dbd b792 70bf 0043 343d
000002d0: 17fc a33e 0f99 e13e 19bc f93e 29a3 13bf
000002e0: f94e 68bc 1737 05be 3ddb 8d3f 44fe d93d
000002f0: db14 dbbe bf67 de3c 491b 943f 8d0f 973e
00000300: 4d8e 5cbe 2435 993e ed7c 0c3f 249f 353f
00000310: 837b 3d3f df0c 8d3e dead 273f 43f6 03be
00000320: 7c54 973e 8449 b5be c828 403f 669c 873a
00000330: 5111 3bbe f813 09bf cde5 babd 7ed5 313e
00000340: 5f5c 5d3f 5840 0b3d 6cc5 393e 1604 0fbf
00000350: e56f 84be 2af6 383e 7e91 c4be be8f 9b3c
00000360: 3eab bc3f 3ef8 36bd af53 643d be20 85bd
00000370: f53c 7f3e a984 f03e 20cc f63d 9064 a43e
00000380: d1cb 3a3f e5f1 053e 249d d43e 285b 85be
00000390: 6606 0d3f c022 9c3e 03fc bd3e 2150 bd3c
000003a0: 3a0f 063f 9d31 06bf b0bc 4f3f b9b9 d63e
000003b0: 7040 293f e32f 3ebd f0f4 2f3f 737a 8d3e
000003c0: 06e6 ab3e db89 053f 13f4 ff3d c48a ef3d
000003d0: 7015 de3c 85a3 1f3d aa71 443f a710 013e
000003e0: 8eb4 bb3f f952 d33f 7759 f9be 61d2 32bf
000003f0: 2136 de3d 80bd 2b3f 4526 38be 8f28 aebf

B f4 [40, 200]
0.6615179 -0.14812827 0.45100552 -0.31995746 -0.38453642 -0.20171054 0.23257592 -0.09797973
-0.38446665 0.19041692 0.16731809 -0.20164734 -0.044374406 -0.3031258 0.7909122 0.03815445
0.13733906 -0.008202224 0.20980991 0.37058777 -0.10507085 0.0027786896 0.2322251 0.7386157
0.2656761 -0.04457712 -0.30869037 -0.66819096 0.736651 -0.6151585 -0.24962598 -0.3102549
0.1518922 -0.2552709 -0.9530789 0.23071548 0.3240232 -0.3501311 -0.29500422 -0.07118996
0.47576702 -0.5854521 0.34696615 -0.028372198 0.23753981 0.86896044 0.4265552 -0.23830758
-0.3217133 0.16189443 -0.37938094 0.6752508 -0.37212184 0.37972623 0.58902955 -0.6889569
0.22479798 -0.07853493 -0.007059788 -0.26214528 -0.30480266 -0.15882984 -0.16087097 -0.6926486
0.93234617 0.20009777 0.17137356 0.91052043 0.25112796 -0.07886928 0.43065333 -0.43784693
0.22514842 0.18879266 -0.2240112 -0.43474618 0.9428544 0.12095329 -0.37818375 0.4664883
0.07636076 -0.40547702 0.11126139 -0.2679521 1.1559376 -0.29893816 0.5045465 0.00515431
0.14422823 -0.15934642 -0.00046482537 0.6624091 0.15680991 0.2748545 -0.713563 -0.016481623
-0.048841275 -0.48066992 0.6897671 0.7138809 0.5632558 -0.8515986 -0.30751768 -0.006682748
0.29389042 0.4941896 0.032561164 -0.2394834 0.23545837 0.42949912 -0.36978966 -1.0601577
-0.0005109327 0.33358827 -0.11773999 0.36808345 0.10773176 -0.3526151 0.6056221 0.026410367
-0.1071985 -0.4491175 0.18907373 0.3440164 -0.23480546 0.7578723 0.62814516 0.026726853
0.26647517 0.118830994 -0.0507973 -0.52504927 -0.24067791 -0.046536557 -0.4989474 -0.048499867
-0.66394216 0.19549716 -0.2846096 0.41320813 -0.6730213 -0.22321185 -0.077127606 -0.3423067
-0.68433183 -0.22672185 0.20998694 -0.49872285 -0.39477456 -0.33453166 -0.49612144 -0.17901812
-0.042651866 0.47986016 0.18648855 0.29126847 -0.17494397 -0.547604 0.036713425 0.18398902
-0.0806317 0.107984945 0.26170045 -0.32274196 0.5748413 0.1335068 0.44755414 0.17618875
-0.13566332 -0.009167699 -0.39317283 0.9956343 0.03247465 -0.1631214 -0.24319546 -0.15083668
0.43709254 -1.1201966 -0.30202165 -0.8000859 -0.07925703 0.16952667 0.24732113 -0.025443656
-0.28650016 0.15953977 0.407642 -0.09120591 0.14324594 0.3715032 0.14728731 0.6916081
0.27230093 0.16598356 0.15990403 -0.12187794 -0.82674474 0.43527552 0.29281923 0.032640718
0.1604075 0.23208007 -0.50988543 0.56443053 0.61069256 -0.19781229 0.51498383 0.6858073
0.29436803 -0.1690445 -0.4323554 0.2469324 -0.27066192 0.2667616 -0.19279769 0.4837976
0.13218655 0.010581741 -0.023911739 0.20922859 0.15519826 0.008038138 0.37787622 0.04643164
0.31960386 0.64512813 0.023205912 0.24244964 0.39976126 0.023297265 0.71677107 -0.005924524
-0.41518238 0.41106543 0.11434285 0.475897 -0.18501286 0.07512668 0.26556215 -0.28911212
1.0719784 0.36568433 0.29781643 -0.38533214 0.028405879 -0.77653646 0.1789236 0.4301444
-0.99263513 0.08394695 0.79317135 -0.3210074 0.7176704 0.026844589 0.16129848 -0.22039494
00000000: 3d59 293f f0ae 17be 32ea e63e 77d1 a3be
00000010: f5e1 c4be 358d 4ebe 6228 6e3e 99a9 c8bd
00000020: d0d8 c4be a7fc 423e 6f55 2b3e a47c 4ebe
00000030: f0c1 35bd 4e33 9bbe 3979 4a3f d747 1c3d
00000040: 9ca2 0c3e 9f62 06bc 69d8 563e aebd bd3e
00000050: 632f d7bd ad1a 363b 6bcc 6d3e eb15 3d3f
00000060: b306 883e 8096 36bd aa0c 9ebe 900e 2bbf
00000070: 2995 3c3f 077b 1dbf f49d 7fbe bbd9 9ebe
00000080: a189 1b3e deb2 82be fbfc 73bf ae40 6c3e
00000090: 5ee6 a53e 6244 b3be cb0a 97be 0bcc 91bd
000000a0: bc97 f33e 30e0 15bf 8ca5 b13e d06c e8bc
000000b0: a33d 733e 3174 5e3f 7165 da3e e706 74be
000000c0: 9bb7 a4be a7c7 253e 383e c2be 3ddd 2c3f
000000d0: c186 bebe 7a6b c23e a4ca 163f 7b5f 30bf
000000e0: 7131 663e ecd6 a0bd cb55 e7bb e837 86be
000000f0: 180f 9cbe 4aa4 22be 5cbb 24be 6b51 31bf
00000100: 3dae 6e3f 6ee6 4c3e 8d7c 2f3e de17 693f
00000110: d893 803e 3886 a1bd 987e dc3e 792d e0be
00000120: 4f8d 663e dd52 413e 3163 65be 0d97 debe
00000130: e85e 713f 5cb6 f73d 4da1 c1be 8ed7 ee3e
00000140: 0863 9c3d af9a cfbe 03dd e33d 0531 89be
00000150: c3f5 933f 6c0e 99be f629 013f 7ce5 a83b
00000160: 91b0 133e b52b 23be ceb3 f3b9 a593 293f
00000170: c792 203e bbb9 8c3e 11ac 36bf 7804 87bc
00000180: ca0d 48bd 5e1a f6be 9494 303f e6c0 363f
00000190: 8831 103f 5e02 5abf f572 9dbe f4fa dabb
000001a0: ce78 963e 6b06 fd3e db5e 053d 233b 75be
000001b0: 001c 713e 4fe7 db3e 1255 bdbe 3fb3 87bf
000001c0: 1df0 05ba 15cc aa3e aa21 f1bd 6f75 bc3e
000001d0: 78a2 dc3d f789 b4be 0d0a 1b3f 8e5a d83c
000001e0: e38a dbbd bbf2 e5be 8b9c 413e eb22 b03e
000001f0: d870 70be eb03 423f 1fce 203f 46f2 da3c
00000200: 6f6f 883e aa5d f33d d410 50bd a169 06bf
00000210: 4574 76be 1e9d 3ebd 0976 ffbe cca7 46bd
00000220: 1df8 29bf 6830 483e 59b8 91be 0490 d33e
00000230: 204b 2cbf a691 64be 14f5 9dbd d342 afbe
00000240: 5f30 2fbf c629 68be d106 573e 9a58 ffbe
00000250: e41f cabe bc47 abbe a103 febe 8750 37be
00000260: b9b3 2ebd 3bb0 f53e dbf6 3e3e 2421 953e
00000270: 8324 33be c72f 0cbf d160 163d 9e67 3c3e
00000280: 3c22 a5bd 3627 dd3d 9afd 853e 6f3e a5be
00000290: cd28 133f 02b6 083e d125 e53e d36a 343e
000002a0: 53eb 0abe 1e34 16bc f34d c9be e4e1 7e3f
000002b0: 2304 053d 4c09 27be 3b08 79be ee74 1abe
000002c0: 98ca df3e 9a62 8fbf 95a2 9abe 6ed2 4cbf
000002d0: 8251 a2bd 6698 2d3e c041 7d3e 376f d0bc
000002e0: 26b0 92be 655e 233e 74b6 d03e 2aca babd
000002f0: 10af 123e ab35 be3e 7cd2 163e 3a0d 313f
00000300: 076b 8b3e 98f7 293e e2bd 233e 249b f9bd
00000310: 8ba5 53bf 6fdc de3e 67ec 953e 46b2 053d
00000320: dd41 243e 66a6 6d3e da87 02bf 857e 103f
00000330: 5956 1c3f 4e8f 4abe fbd5 033f 1191 2f3f
00000340: 68b7 963e 001a 2dbe b05d ddbe d9db 7c3e
00000350: 3394 8abe fa94 883e c26c 45be 52b4 f73e
00000360: e95b 073e 0a5f 2d3c 8de2 c3bc 0540 563e
00000370: 4bec 1e3e 65b2 033c fe78 c13e 1a2f 3e3d
00000380: 1ea3 a33e 1e27 253f 531a be3c b844 783e
00000390: 82ad cc3e e8d9 be3c 4f7e 373f 8222 c2bb
000003a0: c992 d4be 2b77 d23e 962c ea3d c6a8 f33e
000003b0: 0374 3dbe 04dc 993d c3f7 873e 8106 94be
000003c0: 9736 893f fa3a bb3e 657b 983e 414a c5be
000003d0: 72b3 e83c 18cb 46bf c037 373e e33b dc3e
000003e0: 561d 7ebf 61ec ab3d 470d 4b3f 155b a4be
000003f0: 3fb9 373f 2fe9 db3c 6e2b 253e 36af 61be
